[TIMER] Process Time: 08:37:59
[INFO] GPU not detected.
[INFO] Done importing packages.

Model: "sequential"
_________________________________________________________________
Layer (type)                 Output Shape              Param #   
=================================================================
conv2d (Conv2D)              (None, 24, 24, 6)         156       
_________________________________________________________________
max_pooling2d (MaxPooling2D) (None, 12, 12, 6)         0         
_________________________________________________________________
conv2d_1 (Conv2D)            (None, 8, 8, 12)          1812      
_________________________________________________________________
max_pooling2d_1 (MaxPooling2 (None, 4, 4, 12)          0         
_________________________________________________________________
flatten (Flatten)            (None, 192)               0         
_________________________________________________________________
dense (Dense)                (None, 120)               23160     
_________________________________________________________________
dense_1 (Dense)              (None, 60)                7260      
_________________________________________________________________
dense_2 (Dense)              (None, 40)                2440      
_________________________________________________________________
dense_3 (Dense)              (None, 10)                410       
=================================================================
Total params: 35,238
Trainable params: 35,238
Non-trainable params: 0
_________________________________________________________________
2021-02-23 08:38:08.782970: I tensorflow/compiler/mlir/mlir_graph_optimization_pass.cc:116] None of the MLIR optimization passes are enabled (registered 2)
Epoch 1/20
15000/15000 [==============================] - 228s 15ms/step - loss: 0.0687 - accuracy: 0.5105 - val_loss: 0.0384 - val_accuracy: 0.7570
…
